基本信息:
训练日期: 2025-09-09 13:08:16
最终测试准确率: 0.9103
实际训练轮次: 30

图像大小: 144x144
批次大小: 32
最大轮次: 50
优化器: adam
损失函数: binary_crossentropy (带类别权重)
指标: accuracy, auc

类别权重信息:
nogot类别权重: 0.6430
got类别权重: 2.2483
权重比值 (got/nogot): 3.4965

------------------------------
Model: "sequential"
_________________________________________________________________
 Layer (type)                Output Shape              Param #   
=================================================================
 conv2d (Conv2D)             (None, 144, 144, 16)      448       
                                                                 
 batch_normalization (BatchN  (None, 144, 144, 16)     64        
 ormalization)                                                   
                                                                 
 conv2d_1 (Conv2D)           (None, 144, 144, 16)      2320      
                                                                 
 batch_normalization_1 (Batc  (None, 144, 144, 16)     64        
 hNormalization)                                                 
                                                                 
 max_pooling2d (MaxPooling2D  (None, 72, 72, 16)       0         
 )                                                               
                                                                 
 dropout (Dropout)           (None, 72, 72, 16)        0         
                                                                 
 conv2d_2 (Conv2D)           (None, 72, 72, 32)        4640      
                                                                 
 batch_normalization_2 (Batc  (None, 72, 72, 32)       128       
 hNormalization)                                                 
                                                                 
 conv2d_3 (Conv2D)           (None, 72, 72, 32)        9248      
                                                                 
 batch_normalization_3 (Batc  (None, 72, 72, 32)       128       
 hNormalization)                                                 
                                                                 
 max_pooling2d_1 (MaxPooling  (None, 36, 36, 32)       0         
 2D)                                                             
                                                                 
 dropout_1 (Dropout)         (None, 36, 36, 32)        0         
                                                                 
 flatten (Flatten)           (None, 41472)             0         
                                                                 
 dense (Dense)               (None, 128)               5308544   
                                                                 
 batch_normalization_4 (Batc  (None, 128)              512       
 hNormalization)                                                 
                                                                 
 dropout_2 (Dropout)         (None, 128)               0         
                                                                 
 dense_1 (Dense)             (None, 64)                8256      
                                                                 
 batch_normalization_5 (Batc  (None, 64)               256       
 hNormalization)                                                 
                                                                 
 dropout_3 (Dropout)         (None, 64)                0         
                                                                 
 dense_2 (Dense)             (None, 1)                 65        
                                                                 
=================================================================
Total params: 5,334,673
Trainable params: 5,334,097
Non-trainable params: 576
_________________________________________________________________

训练历史:
总训练轮次: 30

轮次	训练准确率	测试准确率	训练损失	测试损失	训练AUC	测试AUC
--------------------------------------------------------------------------------
…
